…
No checkpoint found at 'None'

Model Summary:
==========================================================================================================================================================================
Layer (type:depth-idx)                        Input Shape               Output Shape              Param #                   Kernel Shape              Mult-Adds
==========================================================================================================================================================================
ResNet50                                      [256, 3, 224, 224]        [256, 1000]               --                        --                        --
├─ResNet: 1-1                                 [256, 3, 224, 224]        [256, 1000]               --                        --                        --
│    └─Conv2d: 2-1                            [256, 3, 224, 224]        [256, 64, 112, 112]       9,408                     [7, 7]                    30,211,571,712
│    └─BatchNorm2d: 2-2                       [256, 64, 112, 112]       [256, 64, 112, 112]       128                       --                        32,768
│    └─ReLU: 2-3                              [256, 64, 112, 112]       [256, 64, 112, 112]       --                        --                        --
│    └─MaxPool2d: 2-4                         [256, 64, 112, 112]       [256, 64, 56, 56]         --                        3                         --
│    └─Sequential: 2-5                        [256, 64, 56, 56]         [256, 256, 56, 56]        --                        --                        --
│    │    └─Bottleneck: 3-1                   [256, 64, 56, 56]         [256, 256, 56, 56]        75,008                    --                        59,190,345,728
│    │    └─Bottleneck: 3-2                   [256, 256, 56, 56]        [256, 256, 56, 56]        70,400                    --                        55,901,880,320
│    │    └─Bottleneck: 3-3                   [256, 256, 56, 56]        [256, 256, 56, 56]        70,400                    --                        55,901,880,320
│    └─Sequential: 2-6                        [256, 256, 56, 56]        [256, 512, 28, 28]        --                        --                        --
│    │    └─Bottleneck: 3-4                   [256, 256, 56, 56]        [256, 512, 28, 28]        379,392                   --                        95,362,351,104
│    │    └─Bottleneck: 3-5                   [256, 512, 28, 28]        [256, 512, 28, 28]        280,064                   --                        55,902,076,928
│    │    └─Bottleneck: 3-6                   [256, 512, 28, 28]        [256, 512, 28, 28]        280,064                   --                        55,902,076,928
│    │    └─Bottleneck: 3-7                   [256, 512, 28, 28]        [256, 512, 28, 28]        280,064                   --                        55,902,076,928
│    └─Sequential: 2-7                        [256, 512, 28, 28]        [256, 1024, 14, 14]       --                        --                        --
│    │    └─Bottleneck: 3-8                   [256, 512, 28, 28]        [256, 1024, 14, 14]       1,512,448                 --                        95,363,006,464
│    │    └─Bottleneck: 3-9                   [256, 1024, 14, 14]       [256, 1024, 14, 14]       1,117,184                 --                        55,902,470,144
│    │    └─Bottleneck: 3-10                  [256, 1024, 14, 14]       [256, 1024, 14, 14]       1,117,184                 --                        55,902,470,144
│    │    └─Bottleneck: 3-11                  [256, 1024, 14, 14]       [256, 1024, 14, 14]       1,117,184                 --                        55,902,470,144
│    │    └─Bottleneck: 3-12                  [256, 1024, 14, 14]       [256, 1024, 14, 14]       1,117,184                 --                        55,902,470,144
│    │    └─Bottleneck: 3-13                  [256, 1024, 14, 14]       [256, 1024, 14, 14]       1,117,184                 --                        55,902,470,144
│    └─Sequential: 2-8                        [256, 1024, 14, 14]       [256, 2048, 7, 7]         --                        --                        --
│    │    └─Bottleneck: 3-14                  [256, 1024, 14, 14]       [256, 2048, 7, 7]         6,039,552                 --                        95,364,317,184
│    │    └─Bottleneck: 3-15                  [256, 2048, 7, 7]         [256, 2048, 7, 7]         4,462,592                 --                        55,903,256,576
│    │    └─Bottleneck: 3-16                  [256, 2048, 7, 7]         [256, 2048, 7, 7]         4,462,592                 --                        55,903,256,576
│    └─AdaptiveAvgPool2d: 2-9                 [256, 2048, 7, 7]         [256, 2048, 1, 1]         --                        --                        --
│    └─Linear: 2-10                           [256, 2048]               [256, 1000]               2,049,000                 --                        524,544,000
==========================================================================================================================================================================
Total params: 25,557,032
Trainable params: 25,557,032
Non-trainable params: 0
Total mult-adds (Units.TERABYTES): 1.05
==========================================================================================================================================================================
…
